bppmodel.pt (torch, 150429 bytes, 22 tensors)

dc_predictor.fc1.weight f4 [16, 1]
-0.096659034 0.16414258 0.3198768 -0.0010707948 0.8615549 0.41771212 -0.5038119 0.29356214
0.41899025 -0.37514156 0.0010657451 0.38714775 -0.17353636 0.0636131 0.58689415 0.20994927
00000000: 2cf5 c5bd fe14 283e e4c6 a33e e959 8cba
00000010: dd8e 5c3f 5dde d53e d1f9 00bf c74d 963e
00000020: e485 d63e 8e12 c0be 79b0 8b3a 3b38 c63e
00000030: 84b3 31be 9647 823d b23e 163f f1fc 563e

dc_predictor.fc1.bias f4 [16]
0.0 -0.04540746 0.2731735 -0.013376079 -0.27726847 0.026626013 0.0 -0.3565095
-0.08173548 0.0 -0.050095554 -0.013226617 0.0 -0.036459778 0.2202671 0.048427455
00000000: 0000 0000 2cfd 39bd 66dd 8b3e 5727 5bbc
00000010: 22f6 8dbe cc1e da3c 0000 0000 6a88 b6be
00000020: ee64 a7bd 0000 0000 ff30 4dbd 74b4 58bc
00000030: 0000 0000 d956 15bd b38d 613e de5b 463d

dc_predictor.fc2.weight f4 [16, 16]
0.15429828 0.05773322 0.2148291 -0.21591318 0.4708584 0.120955914 -0.19847073 -0.12418095
0.13365519 0.35440966 0.015711566 -0.36916164 0.41961536 -0.38753715 -0.15939309 -0.023998775
-0.13067809 0.24399929 -0.42646444 -0.023772739 0.20111267 -0.0010985953 -0.1587911 -0.22030272
-0.25473127 -0.061332405 0.01203427 0.19476162 0.0033298433 0.35640323 0.006807501 -0.027398288
-0.12729198 0.22642991 -0.425183 0.20718065 -0.19862248 0.078084975 0.07426962 -0.10344806
-0.1122548 -0.40709224 -0.1779581 -0.16335455 0.1457865 -0.06321952 0.04272166 -0.10045579
0.4119552 0.12957655 0.30870065 0.40731153 -0.42929325 0.009591675 -0.4076167 -0.22523278
0.18878776 0.19160226 0.2599539 -0.017859196 -0.06885445 -0.11662226 -0.05960628 -0.029948046
0.201547 -0.06134277 0.26065853 -0.38636303 0.30473423 0.2786114 -0.19306858 -0.28270572
0.439989 0.3057792 -0.15057777 -0.10767341 0.38606313 0.07933029 0.43233112 0.038291965
-0.29882288 0.3416948 0.08711027 -0.07965332 0.39962518 0.35597816 0.074325055 0.47531918
0.49076945 0.124397784 -0.3379505 0.46594042 0.19413659 -0.19708619 0.07011729 0.3841284
-0.11862624 -0.21787748 -0.22636327 -0.29940215 0.4868763 0.19740182 -0.084545344 0.37526366
-0.1235264 0.20747527 -0.07967293 -0.33213758 -0.15605083 0.0370885 0.3134305 -0.05981055
-0.4321967 0.33210838 -0.22983353 0.22554144 -0.36999083 0.26292017 0.24639693 -0.15070373
-0.27454442 0.23076126 -0.35980612 -0.14500564 0.32392123 0.40414408 0.36957046 0.020805674
0.06913969 0.3124785 0.46056154 -0.41047305 -0.2169182 0.121555716 -0.38503334 -0.35405645
-0.054840535 0.088127404 0.4339222 0.14366758 0.022295862 -0.24247085 0.07422672 -0.02724228
0.3473073 -0.0057565602 -0.22810745 -0.33865845 -0.35686046 0.41437945 -0.2643808 0.37417904
0.17694598 -0.36886746 -0.42092422 -0.34467635 -0.14152223 0.12971899 -0.21316238 0.0379477
-0.07200375 0.2348619 -0.26344848 -0.15117562 -0.2302813 -0.086389646 -0.123171836 -0.08554679
0.32842568 -0.202417 -0.24457322 -0.38854057 -0.20718269 0.040199965 0.25780162 -0.13329718
-0.06477839 0.2310359 -0.16155384 -0.42611265 0.43418393 0.10790735 0.2966933 0.4998809
0.46270895 0.026471108 -0.37126407 0.41597435 0.38085815 0.39278585 -0.06972036 -0.220449
0.09326288 -0.0035878469 0.19199887 0.31486312 -0.21637093 0.35018152 -0.058558702 0.34026852
-0.4088675 -0.043709338 0.12893875 0.3390576 0.2799035 0.40484643 -0.38534454 0.2902347
0.20023683 0.15926223 -0.23957933 -0.38708043 -0.15915485 0.013149422 -0.1975741 0.1390714
-0.3037647 0.097302884 -0.25596237 0.40385997 0.42581603 -0.15737477 -0.32947946 0.20168091
0.32647887 -0.2547329 0.08439615 0.0408293 0.24158826 -0.29395786 -0.35689265 0.017167479
-0.3548126 -0.13420057 0.16146526 -0.12258947 -0.18852134 0.148128 -0.21839014 -0.0966275
0.16736618 0.05971664 -0.24030258 -0.09475611 -0.4140497 0.30622047 0.040795833 0.32729745
0.33662465 -0.041235745 0.32294336 0.016825214 0.03512332 -0.14893824 -0.27595806 0.07137509
00000000: 5e00 1e3e ab79 6c3d 29fc 5b3e 5818 5dbe
00000010: 5a14 f13e bcb7 f73d e93b 4bbe 9552 febd
00000020: e8dc 083e 2f75 b53e 8bb5 803c c102 bdbe
00000030: d3d7 d63e 456b c6be f137 23be 1499 c4bc
00000040: 7ad0 05be f3da 793e 8c59 dabe 0cbf c2bc
00000050: 7bf0 4d3e befe 8fba 229a 22be 0997 61be
00000060: 236c 82be b037 7bbd 632b 453c 976f 473e
00000070: 8039 5a3b 7c7a b63e 7511 df3b 6072 e0bc
00000080: d458 02be 3edd 673e 96b1 d9be 2a27 543e
00000090: b163 4bbe 04eb 9f3d ac1a 983d 94dc d3bd
000000a0: d8e5 e5bd 656e d0be a63a 36be 6a46 27be
000000b0: 0e49 153e 3c79 81bd e8fc 2e3d c4bb cdbd
000000c0: cbeb d23e b7af 043e 030e 9e3e 238b d03e
000000d0: 53cc dbbe 6726 1d3c 23b3 d0be 6ca3 66be
000000e0: 9451 413e 6233 443e ad18 853e 734d 92bc
000000f0: 9003 8dbd a7d7 eebd b725 74bd 9b55 f5bc
00000100: 5662 4e3e 8e42 7bbd 0975 853e 60d1 c5be
00000110: 2006 9c3e 27a6 8e3e c5b3 45be cebe 90be
00000120: 3d46 e13e 178f 9c3e 0f31 1abe e083 dcbd
00000130: 11aa c53e eb77 a23d 815a dd3e 09d8 1c3d
00000140: 50ff 98be 9ff2 ae3e df66 b23d 4821 a3bd
00000150: ac9b cc3e c542 b63e bc37 983d 095d f33e
00000160: 2246 fb3e 44c4 fe3d d907 adbe be8f ee3e
00000170: becb 463e f6d0 49be a799 8f3d 7aac c43e
00000180: 50f2 f2bd 461b 5fbe c6cb 67be 3d4b 99be
00000190: da47 f93e b423 4a3e 1c26 adbd 8f22 c03e
000001a0: 69fb fcbd 6674 543e 902b a3bd f00d aabe
000001b0: cacb 1fbe 1cea 173d f679 a03e e8fb 74bd
000001c0: e348 ddbe 1c0a aa3e 7b59 6bbe 56f4 663e
000001d0: 706f bdbe 799d 863e 7a4f 7c3e 1452 1abe
000001e0: 1691 8cbe ae4c 6c3e 8238 b8be 5c7c 14be
000001f0: 01d9 a53e f9eb ce3e 5738 bd3e a970 aa3c
00000200: 1c99 8d3d 2ffd 9f3e b9ce eb3e 8629 d2be
00000210: ce1f 5ebe 34f2 f83d 1723 c5be e346 b5be
00000220: 78a0 60bd 247c b43d 0d2b de3e 981d 133e
00000230: d0a5 b63c 474a 78be 2e04 983d 342b dfbc
00000240: 43d2 b13e 87a1 bcbb 0095 69be a464 adbe
00000250: 6ab6 b6be 8b29 d43e ec5c 87be 6594 bf3e
00000260: 5431 353e 32dc bcbe 6183 d7be 6b79 b0be
00000270: 34eb 10be 0ed5 043e 3d47 5abe 0c6f 1b3d
00000280: b476 93bd a37f 703e b8e2 86be c8cd 1abe
00000290: dcce 6bbe 0eed b0bd 8441 fcbd 2833 afbd
000002a0: 6927 a83e 6746 4fbe 6771 7abe caee c6be
000002b0: b327 54be b8a8 243d 93fe 833e 0e7f 08be
000002c0: 88aa 84bd ad94 6c3e 5f6e 25be 702b dabe
000002d0: 5b4d de3e 87fe dc3d 2fe8 973e 64f0 ff3e
000002e0: 30e8 ec3e f0d9 d83c 5316 bebe 97fa d43e
000002f0: d7ff c23e 3a1b c93e 8cc9 8ebd 62bd 61be
00000300: 9c00 bf3d 1522 6bbb 5a9b 443e bd35 a13e
00000310: 5790 5dbe fe4a b33e 40db 6fbd ad37 ae3e
00000320: 1557 d1be 9008 33bd 8508 043e f598 ad3e
00000330: 834f 8f3e 0848 cf3e e14b c5be a599 943e
00000340: e20a 4d3e a315 233e 4954 75be 682f c6be
00000350: 7df9 22be ac70 573c dd50 4abe bc68 0e3e
00000360: 0c87 9bbe bc46 c73d 800d 83be bcc6 ce3e
00000370: 8f04 da3e da26 21be 88b1 a8be 7185 4e3e
00000380: 3d28 a73e 5a6c 82be e4d7 ac3d a03c 273d
00000390: ea62 773e a581 96be a2ba b6be d0a2 8c3c
000003a0: ffa9 b5be e06b 09be 2657 253e 3010 fbbd
000003b0: bd0b 41be deae 173e aaa1 5fbe a4e4 c5bd
000003c0: 0a62 2b3e 6f99 743d e111 76be 7e0f c2bd
000003d0: 53fe d3be eec8 9c3e 8819 273d 8893 a73e
000003e0: 115a ac3e d0e6 28bd d558 a53e 08d5 893c
000003f0: 78dd 0f3d 4483 18be 604a 8dbe 1a2d 923d

dc_predictor.fc2.bias f4 [16]
-0.38507038 -0.02088144 0.0 0.053886972 0.5904835 -0.1328028 -0.13413464 -0.02216339
0.34103027 -0.020792067 -0.0077493493 -0.34685323 -0.004556926 -0.00012832932 0.0 -0.0011452426
00000000: f227 c5be 8e0f abbc 0000 0000 96b8 5c3d
00000010: ed29 173f 75fd 07be 975a 09be ff8f b5bc
00000020: 859b ae3e 2054 aabc 41ee fdbb bf96 b1be
00000030: 4452 95bb 2490 06b9 0000 0000 f71b 96ba

dc_predictor.fc3.weight f4 [16, 16]
0.41486213 -0.37482336 -0.091320455 -0.25478125 0.4175183 -0.18115936 -0.20126475 -0.017021153
-0.19694136 0.107282616 0.12314041 0.36611593 -0.32089984 -0.31871083 0.010313392 0.37567925
0.31465563 0.12335787 -0.19923933 0.27948305 -0.18118191 -0.058243264 -0.09783253 0.27451625
-0.06112133 -0.25371486 0.27139625 0.29721504 0.17830072 -0.36705014 -0.19674686 0.026406156
-0.34545785 0.16622809 0.340237 -0.42432797 -0.4226458 -0.3919626 -0.014089227 0.25950727
-0.18318878 0.11524847 -0.31546766 -0.4201971 -0.06618956 -0.34877512 -0.15758714 -0.01290974
0.043606557 0.06581633 -0.34037504 -0.41149154 0.39605722 0.12066901 0.47530434 -0.10685088
0.37916914 0.0076855184 0.254507 -0.0013736147 -0.2538976 0.22348467 -0.39840043 -0.009055911
0.26930156 -0.15417992 -0.048120916 -0.41618857 0.052141055 -0.2666986 0.06531606 -0.2432059
0.37740225 0.05832839 0.033287525 -0.38740727 0.42037213 0.38040188 0.25451598 -0.100129664
0.00062438846 0.36110756 -0.04679966 0.09327218 -0.40261242 -0.2714393 -0.2716226 -0.13563249
0.10595831 -0.08747822 -0.11157921 -0.2272006 0.22345695 0.25716963 0.27819255 0.34761617
0.2343132 -0.10621952 0.28771493 -0.29150772 0.14638622 -0.17126311 -0.02086085 0.0031949282
-0.3368489 0.31782863 0.26866636 0.06331586 -0.19461845 0.07856682 -0.2971785 -0.3608026
-0.0060801264 -0.050985426 -0.079060376 0.023557818 0.61752486 0.5832759 0.27053753 0.027872838
-0.07578421 -0.30092078 -0.36372954 0.29475227 -0.061779242 -0.11556742 0.16858307 -0.00077288866
-0.5794454 -0.33013755 0.39737216 0.35749957 0.7310271 -0.29390976 -0.27658263 -0.26641592
0.5221512 -0.35380033 0.34783456 -0.63816017 -0.07274443 0.0065211332 -0.42960894 0.2956418
-0.42156017 -0.06036577 0.3912371 0.30998915 0.31802526 -0.48494908 0.08456945 0.4131417
0.049012117 0.041804492 -0.008468837 -0.32133457 -0.023402136 0.16778192 -0.17082691 -0.038877025
0.32578292 0.3100679 0.029742002 0.33983034 0.08387348 -0.393226 -0.44061098 0.42151943
0.38069275 0.39724752 -0.05431345 0.19335203 -0.028570479 0.2660065 -0.045030057 -0.16411005
-0.17696223 -0.13788922 0.18752697 -0.26992688 0.27369952 -0.09011903 0.40790972 -0.09808089
0.14885275 0.3823254 -0.046283647 -0.25533614 -0.040475607 0.3593234 0.41533563 0.37424836
-0.27648702 0.1789011 -0.03021589 0.20594081 -0.29351586 0.22455156 0.29874495 0.18432489
0.018371679 0.16596583 -0.2993437 -0.18263333 0.24092366 0.18314497 0.24846724 0.16368437
-0.072062075 -0.34413075 -0.35815772 0.09957495 -0.0043042004 -0.20101576 0.102133304 0.046628892
-0.06710693 0.30320355 -0.013748556 -0.30176896 0.045784622 -0.2638667 0.21099076 0.20939776
0.083840415 -0.40425262 -0.033055127 -0.31403494 0.27790916 -0.5116896 0.34162518 0.33811998
-0.30373 -0.42542943 0.17895624 0.07226201 0.046924513 0.12986901 0.014380157 -0.013643146
0.28518265 0.0035554452 0.27009127 -0.41306308 0.05328 -0.07765071 0.15048681 -0.36474562
0.20005913 0.02966386 -0.30828208 -0.34971783 -0.40850496 0.19691804 -0.14146152 -0.26775938
00000000: cf68 d43e d9e8 bfbe 3806 bbbd b072 82be
00000010: f5c4 d53e d781 39be 5918 4ebe f26f 8bbc
00000020: ffaa 49be fdb6 db3d 0a31 fc3d 8c73 bb3e
00000030: fc4c a4be 112e a3be 80f9 283c 0859 c03e
00000040: 8b1a a13e 0da3 fc3d 6505 4cbe 6718 8f3e
00000050: c087 39be 7d90 6ebd 6c5c c8bd 658d 8c3e
00000060: 5c5a 7abd eae6 81be 73f4 8a3e 922c 983e
00000070: 7794 363e ffed bbbe 0278 49be b951 d83c
00000080: dadf b0be b237 2a3e 8b33 ae3e 8441 d9be
00000090: 0865 d8be 52af c8be 80d6 66bc 23de 843e
000000a0: d795 3bbe 6407 ec3d fa84 a1be 1324 d7be
000000b0: 648e 87bd a792 b2be 865e 21be 6083 53bc
000000c0: ca9c 323d b6ca 863d a345 aebe 05af d2be
000000d0: 03c8 ca3e 5021 f73d 175b f33e a2d4 dabd
000000e0: 7522 c23e cdd6 fb3b be4e 823e dc0a b4ba
000000f0: defe 81be 2ad9 643e 24fb cbbe 3e5f 14bc
00000100: e5e1 893e 57e1 1dbe 701a 45bd ab16 d5be
00000110: dc91 553d b88c 88be 6dc4 853d f80a 79be
00000120: de3a c13e c0e9 6e3d 8058 083d 3f5a c6be
00000130: 043b d73e 09c4 c23e eb4f 823e c810 cdbd
00000140: 00ae 233a 17e3 b83e 00b1 3fbd 7c05 bf3d
00000150: 3723 cebe 18fa 8abe 1e12 8bbe 3ee3 0abe
00000160: ac00 d93d c827 b3bd a483 e4bd 46a7 68be
00000170: e6d1 643e bdab 833e 416f 8e3e bffa b13e
00000180: cdef 6f3e 9f89 d9bd 5f4f 933e 8040 95be
00000190: 45e6 153e 995f 2fbe 60e4 aabc 0062 513b
000001a0: 7677 acbe 6fba a23e a38e 893e bfab 813d
000001b0: 0f4a 47be a4e7 a03d c827 98be 1ebb b8be
000001c0: cc3b c7bb 18d6 50bd 68ea a1bd 53fc c03c
000001d0: 1c16 1e3f 9251 153f e583 8a3e 9455 e43c
000001e0: c034 9bbd 4a12 9abe c23a babe c5e9 963e
000001f0: 3b0c 7dbd 9dae ecbd 0aa1 2c3e ae9b 4aba
00000200: 8956 14bf ca07 a9be 5d74 cb3e 2f0a b73e
00000210: 9824 3b3f 577b 96be 3d9c 8dbe ab67 88be
00000220: b3ab 053f 5125 b5be 5f17 b23e 775e 23bf
00000230: 08fb 94bd 3baf d53b b4f5 dbbe 5d5e 973e
00000240: bcd6 d7be 1942 77bd 3b50 c83e e6b6 9e3e
00000250: 35d4 a23e 3f4b f8be bf32 ad3d 4f87 d33e
00000260: eec0 483d 303b 2b3d e0c0 0abc f785 a4be
00000270: d6b5 bfbc 06cf 2b3e 40ed 2ebe 843d 1fbd
00000280: 05cd a63e 38c1 9e3e 80a5 f33c 3efe ad3e
00000290: dcc5 ab3d eb54 c9be c397 e1be 65d1 d73e
000002a0: 29ea c23e 0764 cb3e c877 5ebd 13fe 453e
000002b0: a30c eabc 0132 883e 7071 38bd 770c 28be
000002c0: 9635 35be d532 0dbe 1207 403e db33 8abe
000002d0: 5822 8c3e 5390 b8bd 8bd9 d03e a2de c8bd
000002e0: db6c 183e 28c0 c33e ec93 3dbd 6bbb 82be
000002f0: c0c9 25bd 3df9 b73e dfa6 d43e 7b9d bf3e
00000300: b58f 8dbe da31 373e 5087 f7bc 26e2 523e
00000310: b647 96be d8f0 653e 19f5 983e aabf 3c3e
00000320: 3480 963c f2f2 293e 9443 99be 3b04 3bbe
00000330: b1b4 763e 5b8a 3b3e 326e 7e3e e09c 273e
00000340: 4895 93bd e831 b0be 7360 b7be f4ed cb3d
00000350: 400a 8dbb 13d7 4dbe 442b d13d f0fd 3e3d
00000360: 5c6f 89bd 7f3d 9b3e a041 61bc 7681 9abe
00000370: a888 3b3d 8919 87be f60d 583e 5e6c 563e
00000380: 86b4 ab3d 33fa cebe d064 07bd 30c9 a0be
00000390: 1c4a 8e3e 17fe 02bf 7fe9 ae3e 101e ad3e
000003a0: 8082 9bbe e3d1 d9be 4e40 373e 1bfe 933d
000003b0: eb33 403d 62fc 043e c09a 6b3c 8087 5fbc
000003c0: 7603 923e 7902 693b 6749 8a3e 017d d3be
000003d0: 213c 5a3d 5607 9fbd 3719 1a3e f0bf babe
000003e0: 4ddc 4c3e a001 f33c 26d7 9dbe 370e b3be
000003f0: 9027 d1be e2a4 493e 4adb 10be c217 89be

dc_predictor.fc3.bias f4 [16]
0.04549988 -0.012272312 0.0 0.112948805 -0.026843078 0.0 -0.06775678 0.16666876
1.0333604 -0.00600544 -0.012158671 0.00858814 -0.044512432 0.0 -0.041830674 -0.084642634
00000000: 155e 3a3d cf11 49bc 0000 0000 b451 e73d
00000010: 04e6 dbbc 0000 0000 11c4 8abd 37ab 2a3e
00000020: 2745 843f 48c9 c4bb 2a35 47bc 45b5 0c3c
00000030: ab52 36bd 0000 0000 a456 2bbd 1e59 adbd

dc_predictor.fc4.weight f4 [1, 16]
0.5387361 -0.15085874 0.57502234 0.5667296 -0.5293353 0.18232208 -0.29415825 0.89881074
1.5594199 -0.4491641 -0.56191313 0.07893229 -0.2135332 0.15579349 -0.4675855 -0.37191024
00000000: 9cea 093f b77a 1abe aa34 133f 3115 113f
00000010: 8582 07bf a4b2 3a3e e99b 96be 7618 663f
00000020: 129b c73f d6f8 e5be 8ad9 0fbf 41a7 a13d
00000030: 72a8 5abe 5488 1f3e 5e67 efbe 056b bebe

ac_predictor.lstm.weight_ih_l0 f4 [64, 1]
0.29684737 0.3430322 -0.08030759 0.25398338 0.2537388 0.63877195 0.2568252 -0.24648999
0.20336081 0.13275756 0.18998167 0.19469747 0.34855977 -0.36722264 -0.23368053 0.1927063
-0.1638776 0.053503603 -0.22000104 -0.2172806 0.09730774 -0.018145729 0.12918703 0.23799942
0.010214439 0.29265058 0.033804934 0.18934686 -0.025123527 -0.062159922 0.19644633 -0.19145693
-0.29507968 -0.2483577 -0.030612323 -0.3716921 -0.18377821 -0.38432667 -0.19534332 -0.5766911
0.12678309 -0.1642762 0.3951816 -0.13673435 0.2472352 -0.6721374 0.978221 0.18189327
0.43830147 0.33671188 -0.16389662 0.20406836 -0.14433919 0.50143564 0.3816766 -0.08452456
0.24764381 0.1787573 0.20584127 0.30075398 0.23195869 0.27247715 0.42764676 0.2834182
00000000: 61fc 973e eba1 af3e 4e78 a4bd 1c0a 823e
00000010: 0dea 813e 8f86 233f 987e 833e df67 7cbe
00000020: d13d 503e 99f1 073e 8e8a 423e c65e 473e
00000030: 6d76 b23e 9b04 bcbe f349 6fbe cd54 453e
00000040: 88cf 27be 9826 5b3d f447 61be ce7e 5ebe
00000050: 4849 c73d 5aa6 94bc 9b49 043e 1fb6 733e
00000060: 765a 273c 4cd6 953e 0b77 0a3d 25e4 413e
00000070: dbcf cdbc 679b 7ebd 3a29 493e 490d 44be
00000080: af14 97be 7b51 7ebe b2c6 fabc 6d4e bebe
00000090: 5b30 3cbe 77c6 c4be 1408 48be 07a2 13bf
000000a0: 6dd3 013e 0538 28be 3e55 ca3e 1704 0cbe
000000b0: 392b 7d3e 3211 2cbf b16c 7a3f 3b42 3a3e
000000c0: 0d69 e03e 8065 ac3e 84d4 27be 4cf7 503e
000000d0: a7cd 13be 165e 003f 1e6b c33e 361b adbd
000000e0: 5796 7d3e 270c 373e 0ec8 523e 6dfc 993e
000000f0: 9486 6d3e 2082 8b3e 84f4 da3e 311c 913e

ac_predictor.lstm.weight_hh_l0 f4 [64, 16]
-0.009717714 -0.22653179 -0.23037472 -0.0043851295 0.16635312 0.047051717 -0.09914467 -0.06759681
0.0692358 -0.07623736 0.011370578 -0.020394903 0.15261753 -0.008558863 -0.066532284 0.1883316
-0.09811205 -0.11693941 -0.024939038 0.07706384 -0.006256867 -0.0463368 -0.20551673 0.14767815
-0.18278958 0.20237996 -0.08122329 0.07559298 -0.03301087 -0.08550145 0.25965524 -0.04792044
0.20435213 0.27049428 -0.21835369 0.13035901 -0.090426005 -0.12799509 -0.17814925 -0.25944033
0.039340097 0.1429661 0.16107947 -0.15704559 -0.03612014 -0.035557035 0.0020415166 -0.12438626
-0.20248586 -0.01927693 0.043501545 0.08343046 -0.19804992 -0.103117205 -0.05772753 -0.2980817
0.1255148 0.017959168 0.1385264 0.08969441 -0.0714786 -0.2717473 -0.18062614 0.18549916
0.03535512 -0.20456615 0.04792095 -0.20225318 0.037286878 -0.07724768 -0.09034031 0.17510559
-0.09112302 -0.25354218 -0.055107955 -0.1472522 0.14326094 -0.21920668 0.19016956 -0.1562104
-0.06260417 0.15510137 -0.0010453037 -0.0152995195 0.096385434 0.032561097 0.05163192 -0.08371255
-0.15310605 0.2234904 0.027294619 -0.033170223 0.034031406 0.16661671 0.20995286 0.07355494
0.12986198 -0.12573177 0.0332672 -0.037773542 0.023435663 -0.007762435 0.13125694 0.09837792
-0.0052998518 0.047796782 0.048711088 -0.15353486 -0.27078858 0.23377034 -0.12814976 0.0074496297
-0.08297669 0.12807672 0.08278321 -0.19325426 -0.1454537 0.21404047 0.08806057 0.10248589
-0.22955346 0.11170006 0.17839493 0.009479386 0.041069023 -0.07529945 0.056887355 0.16070409
-0.041097283 0.048279032 0.09912652 0.15028182 -0.10285385 -0.03784901 -0.005140616 0.099338435
-0.13415693 0.26301757 -0.10374535 -0.17033423 -0.020795956 0.01504704 -0.043567378 -0.073703304
-0.2060283 0.1586697 0.13352782 -0.06105112 0.01760357 0.10826845 0.20916529 0.18678851
0.06413128 -0.15848929 0.11583105 -0.37606004 0.09140637 -0.014331922 -0.038437236 -0.043656982
0.14407735 0.020041358 0.039631635 0.029149052 -0.036606204 -0.20351541 -0.015155059 0.07908852
-0.19203626 -0.07051514 -0.0016848596 0.0056273644 -0.17258331 0.04618104 -0.11481061 -0.20168214
-0.031197099 -0.036174007 0.04830756 0.14025773 -0.16907337 0.27018628 0.025396636 0.005807153
0.0967171 0.012639345 -0.13590187 0.08608363 0.103592224 0.20846152 0.025020035 -0.060770944
-0.07866965 0.0672974 0.15851533 0.22239558 0.04847036 -0.11468167 0.015041198 0.16579431
-0.22788917 -0.030216025 0.14627329 0.12883629 -0.048425414 0.024856048 0.066214584 0.27687818
-0.03367544 0.033530924 0.09456 0.15662824 -0.030950665 -0.019321114 0.016088028 -0.18229832
0.12640885 0.13010803 -0.06546622 0.21269217 -0.10854664 0.017444095 0.1472422 -0.15465927
0.041117262 -0.13300592 0.05251079 0.103631325 -0.10995159 0.017926052 0.102854386 -0.11144295
-0.012163899 -0.037131783 -0.015700547 0.07158075 0.029859213 -0.17277685 0.1005378 -0.17916197
-0.097456545 0.21882051 0.01861162 0.22591294 0.24831791 -0.24695109 0.08113746 0.080857225
-0.06990632 -0.039696336 -0.12408278 -0.21657528 -0.039249696 -0.104881376 -0.11128172 0.00410087
00000000: 0c37 1fbc f3f7 67be 5ae7 6bbe 22b1 8fbb
00000010: 7958 2a3e 4db9 403d 5c0c cbbd 3270 8abd
00000020: 80cb 8d3d 5522 9cbd a94b 3a3c 3613 a7bc
00000030: c547 1c3e 793a 0cbc 1442 88bd 00da 403e
00000040: f8ee c8bd ee7d efbd f44c ccbc a6d3 9d3d
00000050: 6806 cdbb a8cb 3dbd fa72 52be f138 173e
00000060: 312d 3bbe b13c 4f3e 6558 a6bd 7ed0 9a3d
00000070: 6836 07bd 621b afbd 88f1 843e 3948 44bd
00000080: af41 513e 3a7e 8a3e 1c98 5fbe d57c 053e
00000090: 4531 b9bd 2511 03be c26c 36be 5dd5 84be
000000a0: 1523 213d b565 123e 04f2 243e 8fd0 20be
000000b0: b6f2 13bd 41a4 11bd f7ca 053b 39be febd
000000c0: 7458 4fbe a7ea 9dbc ad2e 323d 97dd aa3d
000000d0: 99cd 4abe 1d2f d3bd b473 6cbd 2a9e 98be
000000e0: f486 003e 1b1f 933c ddd9 0d3e b4b1 b73d
000000f0: 5f63 92bd 7622 8bbe 0ff6 38be 7ef3 3d3e
00000100: 88d0 103d ca79 51be c248 443d 751b 4fbe
00000110: 20ba 183d 0834 9ebd 5704 b9bd e14e 333e
00000120: b59e babd 48d0 81be e1b8 61bd 48c9 16be
00000130: ffb2 123e b777 60be cfbb 423e 9ef5 1fbe
00000140: 9d36 80bd e5d2 1e3e 9202 89ba d6aa 7abc
00000150: ba65 c53d c95e 053d fe7b 533d 7c71 abbd
00000160: d5c7 1cbe abda 643e f798 df3c 80dd 07bd
00000170: 8464 0b3d 929d 2a3e e2fd 563e f9a3 963d
00000180: 8afa 043e d4bf 00be 3043 083d 6eb8 1abd
00000190: 26fc bf3c 065c febb 3868 063e 5d7a c93d
000001a0: 61aa adbb 8fc6 433d 4785 473d 3e38 1dbe
000001b0: cda4 8abe 7e61 6f3e b139 03be 061c f43b
000001c0: afef a9bd 8b26 033e 3e8a a93d 72e4 45be
000001d0: d1f1 14be 6d2d 5b3e 1a59 b43d 1fe4 d13d
000001e0: 1010 6bbe 00c3 e43d 29ad 363e 6d4f 1b3c
000001f0: fe37 283d 9936 9abd b702 693d 9d8f 243e
00000200: a055 28bd 3cc0 453d d802 cb3d 7ae3 193e
00000210: 0aa5 d2bd 9007 1bbd 9d72 a8bb f371 cb3d
00000220: 6f60 09be 3daa 863e 7178 d4bd 196c 2ebe
00000230: 485c aabc dc87 763c b573 32bd c2f1 96bd
00000240: 15f9 52be 4f7a 223e 84bb 083e bd10 7abd
00000250: 5d35 903c d9bb dd3d 6d2f 563e 7d45 3f3e
00000260: 4357 833d 044b 22be d438 ed3d f18a c0be
00000270: 4333 bb3d 70d0 6abc 5d70 1dbd aad1 32bd
00000280: 0389 133e c62d a43c c854 223d fec9 ee3c
00000290: 63f0 15bd 5866 50be ed4c 78bc 29f9 a13d
000002a0: 27a5 44be 3e6a 90bd 82d6 dcba c165 b83b
000002b0: aeb9 30be 5528 3d3d d321 ebbd c385 4ebe
000002c0: 0f91 ffbc 322b 14bd 26de 453d b99f 0f3e
000002d0: 9221 2dbe db55 8a3e 9b0c d03c ee49 be3b
000002e0: 9d13 c63d 4115 4f3c dc29 0bbe 9d4c b03d
000002f0: 2928 d43d f076 553e d1f6 cc3c f4ea 78bd
00000300: 8e1d a1bd 38d3 893d d851 223e abbb 633e
00000310: db88 463d 39de eabd 5b6f 763c fcc5 293e
00000320: c75b 69be 9987 f7bc aac8 153e a9ed 033e
00000330: ba59 46bd e99e cb3c 839b 873d fac2 8d3e
00000340: 42ef 09bd b957 093d aca8 c13d 2763 203e
00000350: 408c fdbc 5047 9ebc 0acb 833c 69ac 3abe
00000360: 5271 013e 0a3b 053e 2713 86bd facb 593e
00000370: b34d debd ebe6 8e3c a9c6 163e 005f 1ebe
00000380: 936a 283d b432 08be 8e15 573d a93c d43d
00000390: 4d2e e1bd a8d9 923c 52a5 d23d 343c e4bd
000003a0: 174b 47bc 7f17 18bd 6f9e 80bc ee98 923d
000003b0: 4f9b f43c 6aec 30be c3e6 cd3d 3c76 37be
000003c0: 4c97 c7bd 7c12 603e 6577 983c b955 673e
000003d0: 0d47 7e3e bfe0 7cbe 662b a63d 7998 a53d
000003e0: 0b2b 8fbd a098 22bd 1d1f febd e9c5 5dbe
000003f0: 4ac4 20bd 0ccc d6bd ace7 e3bd 9760 863b

ac_predictor.lstm.bias_ih_l0 f4 [64]
-0.0064057214 -0.1293942 -0.0015279604 0.014009592 0.0056519946 -0.27800313 -0.14075673 0.09013885
-0.08605819 -0.02690483 -0.0029893059 -0.12888291 -0.13030988 0.0691231 0.20685007 -0.005029276
0.93336004 0.9459223 0.9856 0.97139835 1.0294133 0.9111983 0.8984589 1.0233264
0.9684036 0.99541414 0.9831567 0.92179686 0.9643146 0.99112785 1.099281 0.9811593
-0.08288829 0.13108805 -0.027438974 -0.040856786 0.008644758 0.16710457 -0.0736784 0.021011483
-0.08555322 -0.0148575315 0.03229009 0.0781364 -0.12290863 0.0820917 -0.19718936 -0.0065302826
0.045643117 -0.041707356 -0.0029983677 0.056727044 0.04397322 -0.045297354 -0.05883685 0.09878851
0.0043014917 0.017390942 0.031246467 0.004177875 -0.029420262 0.08156747 0.16062675 -0.014956232
00000000: 16e7 d1bb ea7f 04be d845 c8ba 7d88 653c
00000010: 5e34 b93b 6d56 8ebe 8822 10be b89a b83d
00000020: 473f b0bd 8567 dcbc 3be8 43bb e2f9 03be
00000030: f46f 05be 6990 8d3d 81d0 533e a0cc a4bb
00000040: aff0 6e3f f727 723f 4850 7c3f 90ad 783f
00000050: d1c3 833f 4b44 693f 6701 663f 5cfc 823f
00000060: 4ce9 773f 76d3 7e3f 28b0 7b3f e1fa 6b3f
00000070: 52dd 763f 8eba 7d3f 3db5 8c3f 422d 7b3f
00000080: 56c1 a9bd f23b 063e b3c7 e0bc 7259 27bd
00000090: bea2 0d3c 761d 2b3e b3e4 96bd 4620 ac3c
000000a0: 8736 afbd 016d 73bc 9d42 043d fa05 a03d
000000b0: 85b7 fbbd b11f a83d 02ec 49be fbfb d5bb
000000c0: 47f4 3a3d 55d5 2abd 4380 44bb 9e5a 683d
000000d0: 431d 343d b889 39bd e9fe 70bd a151 ca3d
000000e0: 87f3 8c3b 7377 8e3c 97f8 ff3c 8ee6 883b
000000f0: c302 f1bc d90c a73d 577b 243e fc0a 75bc

ac_predictor.lstm.bias_hh_l0 f4 [64]
-0.0064057214 -0.1293942 -0.0015279604 0.014009592 0.0056519946 -0.27800313 -0.14075673 0.09013885
-0.08605819 -0.02690483 -0.0029893059 -0.12888291 -0.13030988 0.0691231 0.20685007 -0.005029276
0.93336004 0.9459223 0.9856 0.97139835 1.0294133 0.9111983 0.8984589 1.0233264
0.9684036 0.99541414 0.9831567 0.92179686 0.9643146 0.99112785 1.099281 0.9811593
-0.08288829 0.13108805 -0.027438974 -0.040856786 0.008644758 0.16710457 -0.0736784 0.021011483
-0.08555322 -0.0148575315 0.03229009 0.0781364 -0.12290863 0.0820917 -0.19718936 -0.0065302826
0.045643117 -0.041707356 -0.0029983677 0.056727044 0.04397322 -0.045297354 -0.05883685 0.09878851
0.0043014917 0.017390942 0.031246467 0.004177875 -0.029420262 0.08156747 0.16062675 -0.014956232
00000000: 16e7 d1bb ea7f 04be d845 c8ba 7d88 653c
00000010: 5e34 b93b 6d56 8ebe 8822 10be b89a b83d
00000020: 473f b0bd 8567 dcbc 3be8 43bb e2f9 03be
00000030: f46f 05be 6990 8d3d 81d0 533e a0cc a4bb
00000040: aff0 6e3f f727 723f 4850 7c3f 90ad 783f
00000050: d1c3 833f 4b44 693f 6701 663f 5cfc 823f
00000060: 4ce9 773f 76d3 7e3f 28b0 7b3f e1fa 6b3f
00000070: 52dd 763f 8eba 7d3f 3db5 8c3f 422d 7b3f
00000080: 56c1 a9bd f23b 063e b3c7 e0bc 7259 27bd
00000090: bea2 0d3c 761d 2b3e b3e4 96bd 4620 ac3c
000000a0: 8736 afbd 016d 73bc 9d42 043d fa05 a03d
000000b0: 85b7 fbbd b11f a83d 02ec 49be fbfb d5bb
000000c0: 47f4 3a3d 55d5 2abd 4380 44bb 9e5a 683d
000000d0: 431d 343d b889 39bd e9fe 70bd a151 ca3d
000000e0: 87f3 8c3b 7377 8e3c 97f8 ff3c 8ee6 883b
000000f0: c302 f1bc d90c a73d 577b 243e fc0a 75bc

ac_predictor.lstm.weight_ih_l0_reverse f4 [64, 1]
-0.24180052 -0.24214636 0.5653351 0.31428316 -0.17918447 0.5432077 0.079786636 -0.16669625
-0.36957487 -0.21770434 0.42949644 0.029736899 0.579114 1.5114063 0.3531438 0.4825618
-0.15843508 -0.18026182 -0.26814225 0.013120607 0.13999592 -0.21942075 0.09152016 -0.20077829
0.15647167 -0.30109242 0.29668137 0.053954143 0.07377365 -1.2196957 -0.048538458 -0.05569702
-0.09451249 -0.5538974 0.37997407 -0.23911153 0.54570985 0.35591313 -1.0868324 0.2048699
-0.96552587 0.050006848 -0.9358112 -1.0499607 0.58407444 1.3315707 -0.94963676 -0.953315
-0.374949 0.012983862 0.27885306 0.32844892 -0.24092485 0.45090082 0.26142684 -0.011685827
-0.17741783 0.21020652 0.31703177 0.24520318 0.2111115 0.33698532 0.21428889 0.22730036
00000000: 8e9a 77be 37f5 77be cdb9 103f b9e9 a03e
00000010: 227c 37be a90f 0b3f 2d67 a33d 6cb2 2abe
00000020: eb38 bdbe e3ed 5ebe f5e6 db3e cc9a f33c
00000030: d140 143f c375 c13f 44cf b43e 5712 f73e
00000040: ce3c 22be 8e96 38be f149 89be d0f7 563c
00000050: 175b 0f3e d5af 60be ec6e bb3d d398 4dbe
00000060: 1c3a 203e c928 9abe 9fe6 973e 05ff 5c3d
00000070: a416 973d fd1e 9cbf 43d0 46bd 8f22 64bd
00000080: c48f c1bd 38cc 0dbf f68b c23e a7d9 74be
00000090: a4b3 0b3f 3f3a b63e 531d 8bbf 6ac9 513e
000000a0: b42c 77bf fbd3 4c3d 5391 6fbf 1d65 86bf
000000b0: e785 153f e970 aa3f 651b 73bf 740c 74bf
000000c0: 51f9 bfbe 44ba 543c d4c5 8e3e 752a a83e
000000d0: 01b5 76be 79dc e63e bdd9 853e e975 3fbc
000000e0: 05ad 35be 6140 573e fd51 a23e 8b16 7b3e
000000f0: 9d2d 583e 5789 ac3e 8c6e 5b3e 6dc1 683e

ac_predictor.lstm.weight_hh_l0_reverse f4 [64, 16]
-0.17530109 -0.07534365 -0.2743417 0.03890407 -0.022686638 0.009804303 0.044848785 0.032077555
0.021709003 -0.05805485 0.054445792 0.035050478 0.03571989 0.09089084 0.20645967 -0.006151827
0.03549612 0.019705355 -0.21724035 0.0475353 0.107270196 0.0049738293 0.10312646 -0.08502995
0.008853199 -0.21381219 -0.2550208 0.20609802 0.06447549 -0.1492987 -0.045474254 -0.08923846
0.14663383 0.027723694 -0.022059362 0.11358835 -0.06015778 -0.3149723 0.072128244 0.14379296
-0.017564613 -0.09235547 0.05082992 0.034575123 0.089033246 -0.31829163 -0.06126649 0.2150706
-0.010145851 0.29679427 -0.28125003 -0.09509875 0.0027599249 -0.05021271 -0.027248586 -0.09793098
0.15084904 0.12956017 0.051904995 -0.06594422 -0.14879636 0.085316285 0.04313223 0.3069006
0.05993242 -0.053986665 0.13630643 -0.027270826 -0.124422915 -0.16223738 -0.18430476 0.13673511
-0.031509843 -0.09668374 -0.11090516 -0.26834098 -0.09590786 0.09069924 -0.049954757 -0.2982496
-0.106149845 0.050835818 -0.18421997 -0.047568265 -0.03521766 0.031368025 0.08573694 0.16043842
0.04734724 0.036790773 0.04407128 0.050191745 -0.095878 -0.33283746 0.0516615 0.15324835
0.2864604 0.007932663 0.0026069067 0.13835914 0.12862518 -0.05529455 -0.0033090063 0.12888326
-0.049829073 0.106909305 0.2582159 0.07649014 -0.020006076 -0.25424713 0.12659508 0.07620905
0.10907783 0.02129619 -0.023570383 0.27207375 -0.0771752 -0.02631288 0.19147046 0.042331755
0.053234532 -0.13500138 0.08397069 -0.0475635 0.006242413 -0.050106015 0.206616 0.15352605
0.21953551 0.20635468 -0.06646333 -0.14011024 0.006656476 0.17984858 -0.050674397 0.0074111437
-0.023819083 -0.09049762 0.033962697 0.027472533 0.03748076 -0.08772247 0.206696 -0.0670402
-0.075534075 -0.13365415 -0.16975172 0.19228221 0.063431226 0.1108815 0.26042297 -0.075602114
0.16116272 -0.16158824 -0.0005609891 -0.1332642 -0.019248703 0.15743248 0.055544496 -0.05416802
0.116555326 -0.0039516767 0.08350421 0.16792488 0.15240097 0.059481177 -0.0038915896 0.02178535
0.12134491 -0.05012104 0.06346128 -0.044771414 -0.02456947 -0.11933112 -0.12980552 0.00618259
-3.0440528e-06 -0.023827512 -0.26965258 0.03788583 0.058007658 -0.30758938 -0.08105267 0.23539026
-0.13700348 0.02077171 -0.0070846877 -0.3362241 -0.13373245 -0.16666715 -0.07142592 -0.15239649
0.19314201 -0.20050013 0.028135417 -0.013746961 -0.13583365 -0.17168099 0.15530959 -0.2516216
-0.27535832 0.11149312 0.12566826 -0.07852752 -0.04907719 -0.27279034 -0.03487799 0.20275998
-0.24034952 -0.087272756 -0.086326316 0.15029071 -0.19337483 -0.002345174 -0.14768149 -0.028784534
-0.14807251 0.08407467 -0.0195917 0.23085499 0.15277153 -0.17647094 0.18477829 0.3788958
0.09257383 0.1362218 -0.040626336 0.23392795 0.30884036 0.07392791 -0.08074584 0.024461228
-0.061563756 -0.0044250223 -0.1678392 0.0050807633 -0.18320416 -0.18192852 -0.23784849 -0.24317423
-0.08311552 0.21227728 0.16846046 0.08533503 0.12345701 0.04116781 0.15193988 0.0632425
-0.2904545 0.02173249 -0.18082531 -0.083791696 -0.038887378 0.24494219 -0.20623685 -0.2311434
00000000: 2182 33be c64d 9abd 8476 8cbe e059 1f3d
00000010: 54d9 b9bc 3aa2 203c 5cb3 373d c163 033d
00000020: 14d7 b13c ecca 6dbd 8d02 5f3d 1791 0f3d
00000030: 054f 123d fa24 ba3d 2a6a 533e 4495 c9bb
00000040: 6164 113d 206d a13c 4174 5ebe 60b4 423d
00000050: 7ab0 db3d 81fb a23b f733 d33d 2f24 aebd
00000060: 020d 113c 95f1 5abe 1692 82be 5c0b 533e
00000070: ba0b 843d c2e1 18be 3643 3abd a7c2 b6bd
00000080: 2e27 163e cd1c e33c d6b5 b4bc 02a1 e83d
00000090: 0168 76bd 0d44 a1be f9b7 933d 763e 133e
000000a0: aae3 8fbc dd24 bdbd 0933 503d a59e 0d3d
000000b0: 1057 b63d 1ff7 a2be 92f2 7abd 783b 5c3e
000000c0: c93a 26bc 6bf5 973e 0100 90be 22c3 c2bd
000000d0: dbdf 343b d8ab 4dbd 6d38 dfbc 0a90 c8bd
000000e0: 2c78 1a3e 6cab 043e 559a 543d c30d 87bd
000000f0: 135e 18be 4eba ae3d 6cab 303d 1322 9d3e
00000100: b27b 753d 1f21 5dbd ea93 0b3e 1167 dfbc
00000110: 71d1 febd 8e21 26be 63ba 3cbe 4a04 0c3e
00000120: 7710 01bd 2002 c6bd 3f22 e3bd fd63 89be
00000130: 576b c4bd 86c0 b93d 5c9d 4cbd 2cb4 98be
00000140: 1765 d9bd 3839 503d 29a4 3cbe f1d6 42bd
00000150: 6540 10bd c27b 003d d996 af3d f849 243e
00000160: 2eef 413d ecb1 163d 1684 343d dc95 4d3d
00000170: af5b c4bd ac69 aabe 029b 533d 23ed 1c3e
00000180: f0aa 923e 00f8 013c a3d8 2a3b 05ae 0d3e
00000190: 52b6 033e 8a7c 62bd eadb 58bb f9f9 033e
000001a0: 9219 4cbd 44f3 da3d e034 843e dda6 9c3d
000001b0: c8e3 a3bc ae2c 82be 24a2 013e 7e13 9c3d
000001c0: 3364 df3d 5975 ae3c ad16 c1bc 404d 8b3e
000001d0: 080e 9ebd 1c8e d7bc d510 443e 1064 2d3d
000001e0: 740c 5a3d cd3d 0abe d3f8 ab3d f2d1 42bd
000001f0: 288d cc3b f73b 4dbd 2593 533e ef35 1d3e
00000200: ebcd 603e a44e 533e ed1d 88bd 0f79 0fbe
00000210: 911e da3b 3a2a 383e f58f 4fbd 2ed9 f23b
00000220: 3d20 c3bc d156 b9bd 781c 0b3d 140e e13c
00000230: 6d85 193d d7a7 b3bd 1ea8 533e 5f4c 89bd
00000240: 9cb1 9abd a2dc 08be 65d3 2dbe a1e5 443e
00000250: 3be8 813d d715 e33d 2956 853e 48d5 9abd
00000260: d707 253e 6377 25be 570f 13ba 6976 08be
00000270: 75af 9dbc fb35 213e a082 633d 49df 5dbd
00000280: 8fb4 ee3d 117d 81bb 4104 ab3d 80f4 2b3e
00000290: 000f 1c3e 89a2 733d 0a0a 7fbb 3177 b23c
000002a0: ae83 f83d b84b 4dbd fdf7 813d 3b62 37bd
000002b0: ea45 c9bc e063 f4bd bdeb 04be 5397 ca3b
000002c0: 6e48 4cb6 ea31 c3bc e70f 8abe 2c2e 1b3d
000002d0: 7099 6d3d 5b7c 9dbe f1fe a5bd 250a 713e
000002e0: a44a 0cbe 6f29 aa3c ab26 e8bb 9125 acbe
000002f0: 29f1 08be cbaa 2abe c147 92bd d30d 1cbe
00000300: 05c7 453e e84f 4dbe 3f7c e63c ef3a 61bc
00000310: fa17 0bbe 24cd 2fbe 7a09 1f3e 8cd4 80be
00000320: c4fb 8cbe 8156 e43d 2eaf 003e 09d3 a0bd
00000330: 2a05 49bd 2dab 8bbe 39dc 0ebd 50a0 4f3e
00000340: 2f1e 76be 0fbc b2bd dacb b0bd cfe5 193e
00000350: 0d04 46be 7eb1 19bb d139 17be 8bcd ebbc
00000360: 52a0 17be 572f ac3d c67e a0bc 4065 6c3e
00000370: 2470 1c3e ccb4 34be 8536 3d3e a1fe c13e
00000380: 5997 bd3d ba7d 0b3e cd67 26bd cf8a 6f3e
00000390: 5320 9e3e 8467 973d 135e a5bd ea62 c83c
000003a0: 472a 7cbd c7ff 90bb 0ade 2bbe 887c a63b
000003b0: df99 3bbe 784b 3abe 8e8e 73be aa02 79be
000003c0: 7838 aabd 375f 593e e680 2c3e 22c4 ae3d
000003d0: 07d7 fc3d 949f 283d 2196 1b3e 4985 813d
000003e0: 74b6 94be 5608 b23c 452a 39be fb9a abbd
000003f0: 5f48 1fbd 20d2 7a3e c12f 53be dbb0 6cbe

ac_predictor.lstm.bias_ih_l0_reverse f4 [64]
0.025975326 0.06373486 0.0085422825 -0.122413754 0.15832172 0.022644194 0.08833173 0.005607874
0.12068296 0.011940859 0.23375776 0.11058077 -0.02401981 -0.5176123 0.2805401 0.23718125
1.0093696 0.99228376 0.913783 0.97880936 1.0813893 0.89848936 0.84094644 0.979633
1.0250629 0.98338693 1.0998129 0.8202672 1.1475524 0.99225676 1.1671737 1.1630883
0.03649879 -0.02924862 0.0773943 -0.106921166 -0.00073247927 0.019537974 0.06057795 0.012454593
0.13428295 -0.0007942772 -0.059088793 -0.15028165 0.039931145 -0.31454322 0.12934396 -0.11043252
0.002566584 0.045579795 0.11500843 -0.007350899 0.07413687 0.07478147 0.124809876 0.004778559
0.1303307 0.015248276 0.15174668 0.19687676 0.1587943 0.37426585 0.21079051 0.12151338
00000000: 35ca d43c 6c87 823d eef4 0b3c 10b4 fabd
00000010: 171f 223e 5180 b93c 44e7 b43d 42c2 b73b
00000020: a128 f73d 98a3 433c 325e 6f3e 2c78 e23d
00000030: 31c5 c4bc 3d82 04bf f4a2 8f3e a4df 723e
00000040: 0633 813f 4f06 7e3f afed 693f 4093 7a3f
00000050: f76a 8a3f 6603 663f 4448 573f 3ac9 7a3f
00000060: 4335 833f 3fbf 7b3f abc6 8c3f 08fd 513f
00000070: ffe2 923f 8a04 7e3f f365 953f 14e0 943f
00000080: c17f 153d cd9a efbc e780 9e3d 7cf9 dabd
00000090: da03 40ba 1a0e a03c 9620 783d 590e 4c3c
000000a0: 7881 093e 0a37 50ba 1707 72bd 6fe3 19be
000000b0: d78e 233d cf0b a1be be72 043e 722a e2bd
000000c0: 2234 283b e1b1 3a3d 8a89 eb3d cfdf f0bb
000000d0: 12d5 973d 0727 993d 529c ff3d 7595 9c3b
000000e0: 6975 053e e8d3 793c 7b63 1b3e 109a 493e
000000f0: f99a 223e c69f bf3e 78d9 573e 02dc f83d

ac_predictor.lstm.bias_hh_l0_reverse f4 [64]
0.025975326 0.06373486 0.0085422825 -0.122413754 0.15832172 0.022644194 0.08833173 0.005607874
0.12068296 0.011940859 0.23375776 0.11058077 -0.02401981 -0.5176123 0.2805401 0.23718125
1.0093696 0.99228376 0.913783 0.97880936 1.0813893 0.89848936 0.84094644 0.979633
1.0250629 0.98338693 1.0998129 0.8202672 1.1475524 0.99225676 1.1671737 1.1630883
0.03649879 -0.02924862 0.0773943 -0.106921166 -0.00073247927 0.019537974 0.06057795 0.012454593
0.13428295 -0.0007942772 -0.059088793 -0.15028165 0.039931145 -0.31454322 0.12934396 -0.11043252
0.002566584 0.045579795 0.11500843 -0.007350899 0.07413687 0.07478147 0.124809876 0.004778559
0.1303307 0.015248276 0.15174668 0.19687676 0.1587943 0.37426585 0.21079051 0.12151338
00000000: 35ca d43c 6c87 823d eef4 0b3c 10b4 fabd
00000010: 171f 223e 5180 b93c 44e7 b43d 42c2 b73b
00000020: a128 f73d 98a3 433c 325e 6f3e 2c78 e23d
00000030: 31c5 c4bc 3d82 04bf f4a2 8f3e a4df 723e
00000040: 0633 813f 4f06 7e3f afed 693f 4093 7a3f
00000050: f76a 8a3f 6603 663f 4448 573f 3ac9 7a3f
00000060: 4335 833f 3fbf 7b3f abc6 8c3f 08fd 513f
00000070: ffe2 923f 8a04 7e3f f365 953f 14e0 943f
00000080: c17f 153d cd9a efbc e780 9e3d 7cf9 dabd
00000090: da03 40ba 1a0e a03c 9620 783d 590e 4c3c
000000a0: 7881 093e 0a37 50ba 1707 72bd 6fe3 19be
000000b0: d78e 233d cf0b a1be be72 043e 722a e2bd
000000c0: 2234 283b e1b1 3a3d 8a89 eb3d cfdf f0bb
000000d0: 12d5 973d 0727 993d 529c ff3d 7595 9c3b
000000e0: 6975 053e e8d3 793c 7b63 1b3e 109a 493e
000000f0: f99a 223e c69f bf3e 78d9 573e 02dc f83d

ac_predictor.fc1.weight f4 [16, 2016]
0.013226024 0.023802098 0.050712895 -0.06137613 0.002552274 0.0004147581 -0.089461304 0.031136721
0.018119859 -0.00457826 -0.01811593 -0.077505216 -0.024709092 0.005668404 0.007265729 0.01441746
0.0082751345 0.0722651 0.06054276 -0.26375854 -0.023700496 -0.059426337 -0.20253685 0.045020826
0.050324738 0.02087612 -0.04462578 -0.16027682 0.03693019 0.04781463 0.0028468908 -0.078171164
-0.04518967 -0.020961873 0.027016133 -0.10491148 -0.043306265 0.049469788 -0.026325874 0.048770443
0.115815 0.018856026 0.097118415 -0.08639662 -0.003771087 0.08269783 -0.0244964 0.09449416
-0.047215194 0.012149452 0.03818353 -0.15598188 -0.07923415 0.033346232 -0.1642477 -0.02769385
0.041591015 0.04801656 -0.09482585 -0.12346404 0.045461435 0.11857274 -0.1021819 -0.118865125
-0.08000284 -0.012843028 0.057738975 -0.074278295 0.00637417 -0.009122108 -0.12832282 0.09004983
0.08784726 -0.060613774 0.048632342 -0.079543285 0.027653314 0.050858885 -0.027978405 0.04371439
-0.013936389 0.051879574 0.075198516 -0.048309747 -0.050070427 -0.000100709 -0.10081803 -0.008981401
0.055296138 0.039529353 -0.10211082 -0.15075015 0.08365603 0.092294596 -0.0703518 -0.098216206
-0.024389487 0.009281351 -0.011987982 0.019015962 -0.066904135 0.048807327 -0.10186945 0.06986538
0.10228296 0.0057601184 0.10198256 -0.077500455 0.06009971 0.0372111 0.0017157454 0.01651336
-0.016242005 0.030321773 0.016992178 -0.05982461 -0.022034869 0.0794876 -0.0643156 0.008211121
-0.036087736 0.03735733 -0.071772985 -0.051330153 0.043981265 0.14455576 -0.04259797 -0.056558166
-0.050958376 0.043231618 -0.053020783 -0.03692617 -0.021134216 0.019779352 -0.035958085 0.0472368
0.099375084 -0.020303741 0.15292709 -0.06272121 0.06541689 -0.04504472 -0.045507673 -0.021273443
-0.008912463 0.0163665 -0.018183596 -0.08199739 -0.037138768 0.04459683 -0.09762301 0.051668543
-0.0029917571 0.014297487 -0.051837407 -0.14860637 -0.020932494 0.12780641 -0.07250591 -0.035080347
-0.009724888 -0.081372514 -0.027997956 -0.07170215 -0.05842772 -0.02298181 -0.071113475 -0.037085105
0.13064912 -0.003178923 0.101970755 -0.05254557 0.10654946 0.053090107 0.024254698 0.04190544
-0.011353422 0.019725502 -0.029574577 -0.072358325 -0.020226825 0.059653066 -0.08804377 -0.015971491
0.027264964 0.030814601 -0.106882766 -0.06276971 0.0225951 0.12518537 -0.016511748 -0.077266045
-0.034594838 0.013390777 -0.0017550767 -0.05096671 -0.069437884 -0.06563257 0.0120431995 0.05125535
0.07479757 -0.054208215 0.045528434 -0.020343518 0.07989065 -0.01648351 0.008215897 0.028303605
-0.030622894 0.02530329 0.012106482 -0.04537468 -0.004432046 0.08531255 -0.104722194 0.03942575
0.040831815 -0.019496921 -0.11963922 -0.056373972 0.07388467 0.10408681 -0.09409758 -0.09316249
-0.05791291 -0.09071507 -0.025819708 -0.005596965 -0.05794704 -0.05411546 -0.08376612 -0.04233005
0.04962106 -0.017729184 0.059655778 -0.045107353 0.03259021 0.030274075 0.057365015 0.03294383
0.049562596 -0.01807766 0.05919945 -0.049722277 0.023688236 0.04617016 -0.021055434 0.0820358
-0.029321406 0.031493455 -0.09124205 -0.03995596 0.07123104 0.08725859 -0.0085761305 -0.043726206
00000000: f7b1 583c 9efc c23c 53b8 4f3d 8965 7bbd
00000010: 0d44 273b e473 d939 7d37 b7bd 7012 ff3c
00000020: 1970 943c 3a05 96bb dc67 94bc 0ebb 9ebd
00000030: b96a cabc 05be b93b 5a15 ee3b 3637 6c3c
00000040: 6e94 073c baff 933d affb 773d 5c0b 87be
00000050: 8b27 c2bc 0869 73bd d265 4fbe c267 383d
00000060: 5021 4e3d 6604 ab3c 86c9 36bd 9b1f 24be
00000070: 1c44 173d 46d9 433d e792 3a3b 3418 a0bd
00000080: ce18 39bd 3cb8 abbc f050 dd3c d4db d6bd
00000090: e961 31bd d5a0 4a3d 5ca9 d7bc 84c3 473d
000000a0: 6a30 ed3d f477 9a3c 05e6 c63d b6f0 b0bd
000000b0: 5724 77bb 7b5d a93d adac c8bc 2786 c13d
000000c0: b864 41bd 7f0e 473c 5566 1c3d b7b9 1fbe
000000d0: 8445 a2bd 0f96 083d 8d30 28be 37de e2bc
000000e0: 575b 2a3d 03ad 443d 0e34 c2bd b7da fcbd
000000f0: c535 3a3d 44d6 f23d be44 d1bd 8f6f f3bd
00000100: 87d8 a3bd 906b 52bc b47f 6c3d 381f 98bd
00000110: 6ade d03b e574 15bc 0f67 03be 0c6c b83d
00000120: 44e9 b33d 2646 78bd b532 473d 97e7 a2bd
00000130: 3489 e23c 6851 503d f832 e5bc dc0d 333d
00000140: 7455 64bc ad7f 543d ae01 9a3d 71e0 45bd
00000150: a616 4dbd bc33 d3b8 af79 cebd ba26 13bc
00000160: 347e 623d 88e9 213d 7a1f d1bd 3f5e 1abe
00000170: da53 ab3d f304 bd3d 9b14 90bd 9425 c9bd
00000180: 76cc c7bc cf10 183c 3e69 44bc 5dc7 9b3c
00000190: 0905 89bd 31ea 473d eea0 d0bd 9515 8f3d
000001a0: bb79 d13d 60bf bc3b 3bdc d03d 8fb8 9ebd
000001b0: 1d2b 763d ab6a 183d dde2 e03a 0747 873c
000001c0: f40d 85bc 5e65 f83c 2e33 8b3c a60a 75bd
000001d0: 7882 b4bc 65ca a23d e6b7 83bd f087 063c
000001e0: bcd0 13bd 0004 193d b7fd 92bd 913f 52bd
000001f0: b325 343d 6d06 143e 367b 2ebd 89a9 67bd
00000200: bbb9 50bd a313 313d 522c 59bd e53f 17bd
00000210: aa21 adbc 4f08 a23c c948 13bd 607b 413d
00000220: 2a85 cb3d 0854 a6bc eb98 1c3e fa73 80bd
00000230: 4af9 853d d080 38bd 4166 3abd a545 aebc
00000240: 9405 12bc 0a13 863c c4f5 94bc 3fee a7bd
00000250: d21e 18bd 2aab 363d 93ee c7bd 65a2 533d
00000260: 5b11 44bb 0240 6a3c 7653 54bd 452c 18be
00000270: 9f7a abbc afdf 023e fb7d 94bd 69b0 0fbd
00000280: 2355 1fbc a2a6 a6bd f85b e5bc 94d8 92bd
00000290: e851 6fbd 5944 bcbc f1a3 91bd 8de6 17bd
000002a0: e2c8 053e 7a55 50bb 0bd6 d03d 063a 57bd
000002b0: 9a36 da3d 0375 593d cab1 c63c 0aa5 2b3d
000002c0: b403 3abc 6097 a13c 6246 f2bc 9a30 94bd
000002d0: bab2 a5bc c656 743d 4b50 b4bd a5d6 82bc
000002e0: c65a df3c e76e fc3c 5ae5 dabd 688d 80bd
000002f0: 5c19 b93c 9830 003e a543 87bc a93d 9ebd
00000300: 51b3 0dbd fd64 5b3c 9a0a e6ba 78c2 50bd
00000310: 7335 8ebd 5e6a 86bd d750 453c 21f1 513d
00000320: 782f 993d 6f09 5ebd 067c 3a3d 73a7 a6bc
00000330: b69d a33d 6d08 87bc f89b 063c f6dc e73c
00000340: dddc fabc d848 cf3c 445a 463c cdda 39bd
00000350: b23a 91bb 59b8 ae3d 9778 d6bd e57c 213d
00000360: 433f 273d 02b8 9fbc 6805 f5bd 65e8 66bd
00000370: d950 973d 772b d53d 3bb6 c0bd facb bebd
00000380: 1636 6dbd d3c8 b9bd da83 d3bc bf66 b7bb
00000390: e059 6dbd 2ca8 5dbd 928d abbd 4662 2dbd
000003a0: 743f 4b3d cb3c 91bc 9e59 743d 7dc2 38bd
000003b0: 507d 053d 5601 f83c 94f7 6a3d 1cf0 063d
000003c0: 2602 4b3d 9a17 94bc 1f7b 723d 96a9 4bbd
000003d0: d50d c23c ec1c 3d3d 727c acbc 6302 a83d
000003e0: 7233 f0bc 48ff 003d 1ddd babd dca8 23bd
000003f0: 94e1 913d a2b4 b23d e682 0cbc 401a 33bd

ac_predictor.fc1.bias f4 [16]
0.15895125 0.052049316 0.14290272 0.027417915 -0.017187402 0.011262015 -0.017430715 -0.016010564
-0.009513844 0.04218203 0.0024680824 -0.010069478 0.12204974 0.013858442 -0.0742958 0.038872823
00000000: 1ec4 223e aa31 553d 1755 123e 899b e03c
00000010: 98cc 8cbc 5184 383c dcca 8ebc 9628 83bc
00000020: f4df 1bbc 10c7 2c3d 8dbf 213b 74fa 24bc
00000030: 37f5 f93d 850e 633c 6528 98bd 1c39 1f3d

ac_predictor.fc2.weight f4 [16, 16]
0.5636516 0.5345273 0.835107 0.1637635 0.15505213 0.37080494 -0.1763169 -0.35720512
0.15145533 -0.42434108 -0.46385086 -0.37362617 0.59705204 0.11961491 -0.39424244 0.45436636
-0.165606 0.02017079 -0.14980604 -0.1609193 0.08838377 -0.33031207 0.3442367 -0.30345163
-0.41101828 -0.27232862 0.13628747 0.42941046 -0.3181618 -0.04238531 0.31163397 -0.27226925
-0.40359104 -0.062296934 -0.26485574 -0.103899024 -0.22725911 0.1682741 -0.43021306 -0.20889099
-0.24467903 0.11803607 0.3518778 0.11777267 0.024795799 -0.2833245 -0.28454152 -0.09692388
0.10715829 -0.36812648 0.07664883 -0.32288665 -0.15937571 -0.022588048 0.22219956 0.014499752
-0.4022339 -0.0026621204 0.12728472 -0.18292183 0.1944909 -0.32551506 -0.46731722 0.07723975
0.38346234 -0.07831491 -0.34698 -0.3344316 -0.10908344 -0.3622734 0.25665557 -0.2542836
0.25867757 0.35883 0.15704691 0.04491055 -0.017305806 0.21949972 0.30138707 0.16338925
0.28437275 0.12441462 -0.42980814 -0.1817798 0.175633 0.17214517 0.2941846 -0.29809797
-0.06504889 0.4147021 0.008392098 -0.14191058 0.25066397 0.109023646 -0.057203013 -0.020184662
0.9306866 0.528996 0.8583704 -0.26727587 -0.24033175 -0.45248488 -0.113901146 -0.15308566
-0.17981933 -0.19713323 0.16029215 -0.13271868 0.51348007 -0.3330722 -0.38294664 0.583974
-0.20035256 -0.4006362 -0.34648794 -0.14297509 0.2197014 0.34179294 -0.22768702 -0.023842167
0.35420382 0.20890242 0.07232986 -0.24227016 0.26436314 0.28530425 -0.1385214 0.0651897
-0.37077564 0.36150423 0.29284728 -0.14074709 0.4270906 0.056507 -0.019152988 -0.12399074
0.19703254 0.121363886 0.367176 -0.1656244 0.14005521 -0.1534327 0.4058225 -0.122474894
-0.10640909 -0.16453618 -0.39922762 0.2308341 0.3346115 0.30588126 0.2133407 0.07824298
-0.34173074 -0.2542805 0.27535537 0.29482108 0.14585745 -0.32693493 0.14449047 0.23280944
-0.3128987 0.13961901 -0.18917805 -0.33873087 0.023759859 0.31137878 -0.3106645 -0.22397196
0.42415482 0.2145308 0.43018675 0.27599895 0.27251047 -0.1522408 -0.31078428 -0.38057294
0.23516469 0.273655 -0.12033505 0.3424486 -0.060449626 0.36849493 -0.03152372 -0.123005174
0.37432507 0.3770444 -0.33540416 0.15685523 -0.20087051 0.31940082 0.15551336 -0.1665843
0.11110555 -0.0652567 -0.4208352 0.38225758 0.30464098 -0.027238743 0.078848645 -0.148864
-0.113550246 0.194846 0.40918088 -0.3422381 0.21889415 0.08555759 -0.23272952 0.017683052
-0.32071084 0.065176524 -0.14574262 -0.10008145 -0.23953913 -0.057243187 -0.0028972884 0.40614444
-0.25793535 0.024767676 -0.038261246 0.008997971 -0.25734752 -0.39849013 -0.32226148 -0.38906097
0.92009264 0.34067658 0.48819023 0.14791182 -0.27614284 -0.012172872 0.06804423 0.26293153
-0.1685353 0.06293557 -0.3544514 0.12774909 0.6531795 -0.19128142 -0.29358473 0.43955487
0.054701988 -0.10514168 0.1971929 0.47638664 -0.19511795 0.09898792 -0.23145893 -0.41660482
0.1631836 0.03522393 0.39333716 0.112533934 0.17067407 0.30752888 -0.17597915 0.46361268
00000000: 794b 103f c8d6 083f 93c9 553f 9eb1 273e
00000010: fcc5 1e3e 25da bd3e 6b8c 34be 97e3 b6be
00000020: 1b17 1b3e 3c43 d9be dc7d edbe ee4b bfbe
00000030: 67d8 183f a9f8 f43d 25da c9be b5a2 e83e
00000040: 9f94 29be 363d a53c c166 19be 07c8 24be
00000050: 8d02 b53d aa1e a9be cb3f b03e 035e 9bbe
00000060: fd70 d2be a86e 8bbe f18e 0b3e b0db db3e
00000070: 1ae6 a2be 389c 2dbd 7d8e 9f3e e066 8bbe
00000080: 7ca3 cebe 122b 7fbd 2c9b 87be 03c9 d4bd
00000090: 9db6 68be 0c50 2c3e e344 dcbe 85e7 55be
000000a0: 248d 7abe e5bc f13d 5429 b43e cc32 f13d
000000b0: 8f20 cb3c e90f 91be 6daf 91be 0780 c6bd
000000c0: ce75 db3d 137b bcbe 10fa 9c3d 6651 a5be
000000d0: 6333 23be 920a b9bc 4888 633e 5e90 6d3c
000000e0: 9af1 cdbe f876 2ebb ed56 023e dc4f 3bbe
000000f0: 9f28 473e e9a9 a6be 3444 efbe e02f 9e3d
00000100: 2d55 c43e 9163 a0bd 5da7 b1be 9e3a abbe
00000110: 2367 dfbd e67b b9be 5c68 833e 7631 82be
00000120: 6371 843e 91b8 b73e e8d0 203e 20f4 373d
00000130: e8c4 8dbc 89c4 603e 684f 9a3e 834f 273e
00000140: 4e99 913e 18cd fe3d d00f dcbe 7c24 3abe
00000150: 23d9 333e d346 303e 5d9f 963e 4ca0 98be
00000160: 5a38 85bd d553 d43e 037f 093c 0251 11be
00000170: 0757 803e ca47 df3d b54d 6abd 4e5a a5bc
00000180: 7a41 6e3f 486c 073f 2abe 5b3f 62d8 88be
00000190: 8719 76be 19ac e7be 0145 e9bd 7dc2 1cbe
000001a0: 8f22 38be 4bdd 49be a023 243e 68e7 07be
000001b0: 6e73 033f 7088 aabe 9511 c4be 527f 153f
000001c0: 3929 4dbe 3020 cdbe de66 b1be 1068 12be
000001d0: 67f9 603e 7cff ae3e c926 69be a650 c3bc
000001e0: 345a b53e 84ea 553e ad21 943d ab15 78be
000001f0: 9b5a 873e 6613 923e 8ed8 0dbe 2d82 853d
00000200: 4ed6 bdbe 1517 b93e 14f0 953e 0120 10be
00000210: 9eab da3e e273 673d bae6 9cbc dbee fdbd
00000220: e6c2 493e a18d f83d 7efe bb3e 7199 29be
00000230: a26a 0f3e 761d 1dbe f7c7 cf3e 1ed4 fabd
00000240: 02ed d9bd 2c7c 28be 9067 ccbe c65f 6c3e
00000250: 3352 ab3e 789c 9c3e fc75 5a3e db3d a03d
00000260: 55f7 aebe 0e31 82be 61fb 8c3e caf2 963e
00000270: a85b 153e 0464 a7be 4ff5 133e 9965 6e3e
00000280: 4234 a0be 49f8 0e3e e4b7 41be 226e adbe
00000290: 09a4 c23c 0a6d 9f3e 6b0f 9fbe e858 65be
000002a0: d22a d93e f6ad 5b3e 7041 dc3e bc4f 8d3e
000002b0: 7e86 8b3e 03e5 1bbe 1e1f 9fbe 75da c2be
000002c0: 03cf 703e 821c 8c3e 3972 f6bd 6c55 af3e
000002d0: 079a 77bd 5eab bc3e 041f 01bd 23ea fbbd
000002e0: 89a7 bf3e f70b c13e 18ba abbe a89e 203e
000002f0: 00b1 4dbe 8188 a33e e53e 1f3e 1395 2abe
00000300: 4e8b e33d 4ea5 85bd b677 d7be 44b7 c33e
00000310: e7f9 9b3e c923 dfbc 667b a13d ce6f 18be
00000320: 088d e8bd b685 473e 2880 d13e d539 afbe
00000330: ca25 603e d138 af3d a650 6ebe 0cdc 903c
00000340: 3634 a4be 457b 853d 8e3d 15be 81f7 ccbd
00000350: bf49 75be d577 6abd 6fe0 3dbb 2af2 cf3e
00000360: 1a10 84be 95e5 ca3c d3b7 1cbd 3a6c 133c
00000370: 0ec3 83be e606 ccbe 75ff a4be 0033 c7be
00000380: 318b 6b3f 296d ae3e 12f4 f93e 3276 173e
00000390: 9862 8dbe ba70 47bc c65a 8b3d f69e 863e
000003a0: 8594 2cbe 5de4 803d a77a b5be a8d0 023e
000003b0: c636 273f 47df 43be bd50 96be 560d e13e
000003c0: 310f 603d 8554 d7bd f0ec 493e f3e8 f33e
000003d0: 00cd 47be 2eba ca3d 9203 6dbe 3a4d d5be
000003e0: 9a19 273e f846 103d 7d63 c93e 3178 e63d
000003f0: 2fc5 2e3e 6d74 9d3e e133 34be a45e ed3e

ac_predictor.fc2.bias f4 [16]
0.045399766 -0.0015594548 0.00045675063 -0.04198697 -0.057258222 0.09273539 0.08773116 -0.01784301
-0.01805628 -0.01889194 0.009929581 -0.017658796 -0.044818074 0.00048844755 0.12973328 0.087282486
00000000: 1bf5 393d 9f66 ccba 0878 ef39 87fa 2bbd
00000010: 9987 6abd 0dec bd3d 65ac b33d 812b 92bc
00000020: c4ea 93bc 45c3 9abc aeaf 223c 2ea9 90bc
00000030: 2893 37bd 290b 003a cdd8 043e 29c1 b23d
